model.onnx (onnx, 73618 bytes, 6 tensors)

fc1.weight f4 [128, 51]
0	0x3e7b1d63	0.24522929
1	0x3dc40757	0.095717125
2	0x3c49f4f6	0.01232647
3	0x3e26342c	0.1623084
4	0xbe16d6c6	-0.14730367
5	0xbd1099ff	-0.035303112
6	0x3d5d8c6d	0.054089
7	0xbdba7b0c	-0.091055006
8	0xbe18e750	-0.14931989
9	0x3de21d12	0.11040701
10	0xbbbfc31e	-0.005852117
11	0xbe3ab6d6	-0.18233809
12	0x3d09524d	0.033525754
13	0x3d63e9ed	0.05564301
14	0xbe9fa43d	-0.3117999
15	0x3dd5072a	0.10401757
16	0x3e322ced	0.1739995
17	0xbd87ca3c	-0.0663037
18	0x3d2df48b	0.042469542
19	0x3c6421b7	0.013924054
20	0xbd98171d	-0.074262835
21	0xbd2059ce	-0.039148144
22	0xbcb5097e	-0.022099253
23	0x3defae81	0.11703206
24	0xbdad5195	-0.08462826
25	0xbd0812c5	-0.033221025
26	0x3dd76dda	0.105189994
27	0x3df88c7f	0.121361725
28	0xbd5e797b	-0.05431507
29	0x3e083958	0.13303125
30	0x3d098bf9	0.033580754
31	0x3e0e3500	0.13887405
32	0xbe1053e6	-0.14094505
33	0xbdc5d819	-0.09660358
34	0xbd35e4a7	-0.044407513
35	0x3de53d33	0.111933134
36	0x3df5ad5f	0.119959585
37	0xbd8bacb0	-0.06820047
38	0xbcbf0dc1	-0.023321988
39	0xbdaeafcb	-0.085296236
40	0x3e8e5ae6	0.27803725
41	0xbd75e4fe	-0.060032837
42	0xbc168558	-0.009187065
43	0xbd338c29	-0.04383484
44	0x3c0b4754	0.008500893
45	0x3d76d9ff	0.06026649
46	0xbdcbbef8	-0.09948534
47	0xbc482417	-0.012215636
48	0xbd9af2ac	-0.07565817
49	0x3e083910	0.13303018
50	0xbd68b091	-0.05680901
51	0xbcefb76b	-0.029262265
52	0x3dcd2e7b	0.10018631
53	0xbbeb0831	-0.0071726074
54	0x3e161a16	0.14658388
55	0x3d023185	0.031785507
56	0x3e4dcdd6	0.20098051
57	0x3dc11271	0.094273455
58	0xbd65944a	-0.056049623
59	0x3dbe2adb	0.09285518
60	0xbdd74842	-0.10511829
61	0x3db64ada	0.089009956
62	0x3e0c7a47	0.1371852
63	0xba738c9b	-0.0009290666
64	0xbdd4382b	-0.10362276
65	0x3ea38a8a	0.31941634
66	0x3df4d61b	0.119549
67	0x3dc9d1e8	0.098544896
68	0xbdc71c35	-0.09722177
69	0xbd189124	-0.037247792
70	0x3bb5c156	0.005546729
71	0x3cd7abad	0.026326979
72	0x3cdc83d1	0.026918324
73	0xbc6acb41	-0.014330686
74	0x3e08577d	0.13314624
75	0x3c96bf6d	0.018401826
76	0x3d80bda0	0.06286168
77	0xbe49be77	-0.19701563
78	0xbc6cf58f	-0.014462843
79	0xbd411b7b	-0.047145348
80	0xbbaea254	-0.0053294096
81	0xbd893b86	-0.06700806
82	0x3e8cf958	0.27533984
83	0xbdcfd3a1	-0.10147787
84	0x3d062cd2	0.032757588
85	0x3e8e7221	0.27821448
86	0xbdeda984	-0.11604598
87	0xbd3f814d	-0.04675417
88	0x3d65cb2c	0.056101963
89	0xbe36f7db	-0.17867987
90	0xbd2ff353	-0.04295666
91	0xbd8a45be	-0.067515835
92	0xbd8d9406	-0.06912999
93	0xbc938542	-0.018007878
94	0x3e56fcd3	0.20994882
95	0xbdd0455a	-0.10169478
96	0x3cabc3a9	0.020967321
97	0x3e48910c	0.19586581
98	0xbd97589c	-0.07389948
99	0x3da9d562	0.08292653
100	0xbe113d31	-0.14183499
101	0xbdc8083b	-0.09767195
102	0x3e489b18	0.19590414
103	0x3e43fec9	0.19140162
104	0x3e4c8704	0.1997338
105	0x3da5d4f0	0.08097255
106	0xbd9173b5	-0.071021475
107	0x3ea12893	0.31476268
108	0x3eaa29ab	0.33234915
109	0xbcd039c3	-0.025418168
110	0x3eb27fdf	0.34863183
111	0x3e67eb24	0.22648293
112	0x3e4d6eb7	0.20061766
113	0xbe3ca2a5	-0.18421419
114	0xbd80c7b1	-0.06288088
115	0xbcabb98d	-0.020962501
116	0x3db472f4	0.08810988
117	0xbb37a9c4	-0.0028024772
118	0xbd2e8a2a	-0.042612232
119	0xbe3ceb04	-0.18449026
120	0x3d60b290	0.05485779
121	0x3bc7ea3d	0.0061009214
122	0x3e004460	0.12526083
123	0xbcf45b43	-0.029828673
124	0x3de39d9d	0.11114047
125	0xbec9e4bd	-0.39432326
126	0xbd9ae219	-0.07562656
127	0x3bb67102	0.005567671
128	0x3e1b9084	0.15191847
129	0xbc84a52f	-0.016192047
130	0x3ca095c3	0.019602662
131	0xbea849ab	-0.32868704
132	0x3d8fbdf1	0.0701865
133	0x3bbb7388	0.0057205595
134	0x3dd6dfb3	0.10491886
135	0xbd9d40bc	-0.07678363
136	0x3d4545c1	0.048162226
137	0xbed85ad7	-0.42256805
138	0x3dbc0885	0.091813125
139	0x3d9430fc	0.072359055
140	0xbe247462	-0.16060022
141	0x3d2dddee	0.042447977
142	0xbddbd60a	-0.10734184
143	0xbc53341f	-0.012890845
144	0xbd71d8e9	-0.059044752
145	0x3e5a0291	0.21290042
146	0x3e80b8ed	0.25141087
147	0x3d85eb7e	0.06539057
148	0xbcb2ce62	-0.021826927
149	0x3eca692c	0.39533365
150	0x3ec77f30	0.38964224
151	0x3d2e5141	0.04255796
152	0x3ef54585	0.47904602
153	0x3df5afd4	0.11996427
154	0xbd730753	-0.059333157
155	0xbd8376ef	-0.06419169
156	0xbe3202b2	-0.1738384
157	0x3e7622ee	0.24036762
158	0x3de1b059	0.11019964
159	0x3cb85ef0	0.022506207
160	0xbd98924f	-0.07449781
161	0xbdb9c327	-0.090704255
162	0x3dc86b75	0.09786121
163	0x3d289ab2	0.041163154
164	0x3e5a99c2	0.21347716
165	0xbbbe5b08	-0.0058091916
166	0xbd8962bf	-0.067082874
167	0xbeacfebd	-0.337881
168	0x3df88523	0.12134769
169	0x3deae760	0.114699125
170	0xbe231bfd	-0.15928645
171	0xbd9ca1ab	-0.07648023
172	0x3eb2bac7	0.34908125
173	0x3d2cb66f	0.04216617
174	0x3df3f367	0.1191166
175	0xbe48677b	-0.19570725
176	0x3ddf9d7d	0.109187104
177	0x3ce32c5d	0.027731115
178	0xbd6a8f5d	-0.057265628
179	0x3ec78c2d	0.38974133
180	0xbd203a29	-0.039117966
181	0x3de68a0a	0.112567976
182	0x3e2e24fd	0.17006297
183	0xbc5ce4b3	-0.0134822605
184	0xbd77287d	-0.060341347
185	0x3eda0911	0.42585042
186	0xbd2af905	-0.04174139
187	0xbcf76ed9	-0.030204223
188	0xbe19ef8d	-0.15032788
189	0xbde195aa	-0.11014874
190	0x3decb79c	0.11558458
191	0xbd1fd6d5	-0.03902324
192	0xbc2d00d3	-0.010559279
193	0x3db55d01	0.0885563
194	0x3ee23fa6	0.44189185
195	0x3cf3c0ee	0.029755082
196	0x3d0008a4	0.03125824
197	0x3eae3d69	0.34031227
198	0x3c9e105b	0.019294908
199	0xbdff150a	-0.12455185
200	0x3e012e4b	0.12615316
201	0x3d9aabbb	0.07552286
202	0xbdae4826	-0.08509855
203	0x3c97520b	0.018471738
204	0x3e341b54	0.1758855
205	0x3dbd76bd	0.09251163
206	0x3cfbcdd6	0.030737799
207	0x3e52e188	0.20593846
208	0xbd94d880	-0.072678566
209	0xbcccef80	-0.025016546
210	0xbdca55a3	-0.09879615
211	0xbd3a65b1	-0.045507137
212	0xbc3ab1f7	-0.011394969
213	0x3cc63730	0.024196237
214	0xbbc671e3	-0.006056057
215	0xbde30aa4	-0.11086014
216	0x3dc2a0ce	0.09503327
217	0xbbd4af22	-0.006490604
218	0xbe99a347	-0.30007383
219	0xbd2e7aa4	-0.042597428
220	0x3e184738	0.14870918
221	0xbd8bc4e2	-0.06824662
222	0x3bea2716	0.0071457727
223	0xbd2ba2d2	-0.041903324
224	0xbddd12a1	-0.10794569
225	0x3ce2d11f	0.027687607
226	0xbd9e9c95	-0.077447094
227	0x3d8cc010	0.068725705
228	0x3e1c4d4a	0.15263858
229	0xbd99319e	-0.07480167
230	0xbe424b1e	-0.18973967
231	0x3e6c231c	0.23060268
232	0x3e2f6a40	0.17130375
233	0x3e8cdf2d	0.2751402
234	0x3e1f320f	0.1554644
235	0x3d47c5cd	0.048772622
236	0xbd69828d	-0.05700927
237	0xbd95fda5	-0.073237695
238	0xbb0962ac	-0.0020963354
239	0xbe18c9a5	-0.14920671
240	0x3e413183	0.18866543
241	0x3d50a0fa	0.05093477
242	0xbe1789c6	-0.1479865
243	0xbd2cc51a	-0.04218016
244	0x3d8ffce7	0.07030659
245	0x3de87733	0.113508604
246	0x3d2b9ba0	0.041896462
247	0xbcc89bf8	-0.024488434
248	0x3e3bfcb3	0.18358116
249	0x3e07070a	0.13186279
250	0x3e2b18f9	0.16708745
251	0x3d2b0b85	0.041759033
252	0x3d8413c5	0.06449083
253	0x3e030193	0.1279357
254	0x3d091d53	0.03347523
255	0xbb99be83	-0.0046919

fc1.bias f4 [128]
0	0x3eace9d7	0.33772156
1	0x3e80c8e3	0.25153264
2	0x3e5ce6a2	0.21572354
3	0x3ed612e2	0.4181128
4	0x3e5f9f8a	0.21838203
5	0x3e835092	0.25647408
6	0x3ec6b077	0.38806507
7	0x3eb7e72e	0.35918564
8	0x3e8049a0	0.2505617
9	0x3e6ccb00	0.23124313
10	0x3e8e2ed9	0.27770117
11	0x3eb4a2b4	0.35280383
12	0x3e8c3c5e	0.27389807
13	0x3e1efec4	0.15526873
14	0x3e6ade0e	0.2293627
15	0x3eab478e	0.3345303
16	0x3ebb992b	0.36640295
17	0x3e9011cf	0.28138587
18	0x3e9c7349	0.30556706
19	0x3e38a749	0.18032564
20	0x3e893e04	0.26805127
21	0x3ec9dc57	0.39425918
22	0x3eb176e0	0.34661007
23	0x3eab39b5	0.33442464
24	0x3eb970b1	0.3621879
25	0x3e695502	0.22786334
26	0x3e88d126	0.26722068
27	0x3eaf8a62	0.34285265
28	0x3e934715	0.2876517
29	0x3ec5ecfb	0.38657364
30	0x3e94dcdb	0.2907475
31	0x3e8caa9e	0.2747392
32	0x3e340f05	0.17583854
33	0x3ec5c065	0.38623348
34	0x3ea4bd27	0.32175562
35	0x3e9e6681	0.3093758
36	0x3e84b46e	0.25918907
37	0x3e40bdef	0.18822454
38	0x3e9a18e4	0.30097115
39	0x3e0aa36b	0.13538902
40	0x3d960c18	0.073265254
41	0x3ecb3859	0.39691427
42	0x3eb69695	0.3566176
43	0x3e9342c3	0.28761873
44	0x3e6184db	0.22023337
45	0x3ebbbdf0	0.36668348
46	0x3e5991ec	0.21247071
47	0x3eb2584d	0.34832993
48	0x3e9b01b2	0.3027473
49	0x3e841b64	0.25802147
50	0x3eb93ec5	0.36180702
51	0x3eb90dfc	0.36143482
52	0x3e285211	0.16437556
53	0x3e8e1cfc	0.27756488
54	0x3e92c42c	0.28665292
55	0x3e1f7571	0.15572144
56	0x3e5e8b15	0.21732743
57	0x3ea8c6cf	0.3296418
58	0x3e8876e7	0.26653215
59	0x3eb6805f	0.35644814
60	0x3e996cab	0.2996572
61	0x3e969002	0.29406744
62	0x3e7873f9	0.2426299
63	0x3e8e0426	0.2773754
64	0x3ee3393e	0.4437961
65	0x3e735b2a	0.23765245
66	0x3ebbd77a	0.36687833
67	0x3e240804	0.16018683
68	0x3e93c815	0.28863588
69	0x3ea2ce9b	0.31798252
70	0x3ed12fe9	0.40856865
71	0x3e8947a5	0.26812473
72	0x3e1b6d43	0.15178399
73	0x3e89c043	0.26904497
74	0x3ee65ad3	0.44991168
75	0x3e862564	0.26200402
76	0x3eecb4b6	0.46231622
77	0x3ebf48a8	0.3736012
78	0x3ec6b07e	0.38806528
79	0x3eaf381a	0.3422249
80	0x3ed25e21	0.4108744
81	0x3eb55964	0.35419762
82	0x3e946e90	0.28990602
83	0x3e0c62cf	0.13709567
84	0x3ead9c38	0.33908248
85	0x3e9d2a7c	0.30696476
86	0x3efd7046	0.4949972
87	0x3e8a2366	0.26980132
88	0x3ecb0f42	0.39660078
89	0x3e720f03	0.23638539
90	0x3ebe2b44	0.37142384
91	0x3e6daad3	0.23209696
92	0x3ee038bd	0.43793288
93	0x3e67ba9d	0.22629781
94	0x3e8b79ca	0.27241355
95	0x3e87b2da	0.2650364
96	0x3e6c9d41	0.23106863
97	0x3e9128f5	0.2835156
98	0x3ed197e2	0.4093619
99	0x3e8b0197	0.2714965
100	0x3e60c8f7	0.21951662
101	0x3e8e86b1	0.27837136
102	0x3e7274c2	0.23677352
103	0x3e6dcb3f	0.23222063
104	0x3e74aa52	0.23893097
105	0x3e4593c3	0.19294648
106	0x3eae834b	0.34084544
107	0x3e82afd0	0.2552476
108	0x3ec6ebc0	0.38851738
109	0x3e441a23	0.19150595
110	0x3eb6a97a	0.35676175
111	0x3e90c464	0.28274834
112	0x3e26245f	0.16224812
113	0x3eb57b4a	0.35445625
114	0x3e0eea4b	0.13956563
115	0x3e7480c9	0.23877253
116	0x3e81e695	0.25371233
117	0x3ebbf2e4	0.36708748
118	0x3e41daf1	0.18931176
119	0x3ea09fa9	0.3137181
120	0x3e9b67cd	0.3035263
121	0x3eb8485e	0.35992712
122	0x3e96d3c4	0.2945844
123	0x3ec5d455	0.3863856
124	0x3e98f08f	0.29871032
125	0x3ea3d7aa	0.32000476
126	0x3eb331a7	0.3499882
127	0x3e674dc9	0.22588266

fc2.weight f4 [64, 128]
0	0xbcea540a	-0.028604526
1	0x3dad61cc	0.08465919
2	0x3e109259	0.14118327
3	0x3c3e1074	0.011600602
4	0x3e19b017	0.15008579
5	0xbd0a0267	-0.033693697
6	0x3d19bf1e	0.03753578
7	0x3d9940d4	0.07483068
8	0x3da57e49	0.080807276
9	0x3d6f5ebf	0.058439966
10	0xbd847cfd	-0.06469152
11	0x3d689ddc	0.05679117
12	0x3da26506	0.07929425
13	0x3d731104	0.0593424
14	0x3d0ca427	0.034336235
15	0x3ad9fb2a	0.0016630639
16	0xbe36027d	-0.17774387
17	0x3d74e771	0.059791032
18	0x3dea2048	0.114319384
19	0x3dea3a74	0.1143693
20	0x3d7e2b4d	0.062053014
21	0xbd3c6927	-0.04599872
22	0xbdffc976	-0.124895975
23	0xbc03d5a4	-0.008046541
24	0x3df9d3c5	0.12198595
25	0x3dc671ca	0.09689672
26	0xbdfa7bf0	-0.122306705
27	0x3c673fc6	0.014114326
28	0x3dd50d81	0.10402966
29	0xbd27b6cc	-0.040945813
30	0x3e05a017	0.1304935
31	0x3d10ac88	0.03532079
32	0xbc7438cb	-0.014906119
33	0xbd6fd0e4	-0.058548823
34	0x3b190f33	0.0023355007
35	0x3d7d5d41	0.061856512
36	0xbd232b75	-0.039836366
37	0x3d1a5703	0.037680637
38	0xbd1af7b1	-0.037833873
39	0x3dc3d5d7	0.09562271
40	0x3d4985dc	0.049199924
41	0xbe054a9e	-0.13016745
42	0x3e07722e	0.1322715
43	0x3de6d649	0.112713404
44	0x3d126127	0.035737183
45	0xbbe947db	-0.0071191615
46	0x3d4500bd	0.048096407
47	0xbd95e74d	-0.07319508
48	0x3d2a3d64	0.041562453
49	0x3d449bf9	0.04800031
50	0xbd58f15c	-0.052964553
51	0xbd912f0b	-0.07089051
52	0xbd831687	-0.06400781
53	0xbe00b5b8	-0.1256932
54	0xbaffcf89	-0.0019516806
55	0x3d958bbd	0.073020436
56	0xbdbdae4f	-0.09261762
57	0x3d87f838	0.06639141
58	0x3d786b35	0.060649116
59	0xbddca26f	-0.10773169
60	0x3cf7bb0f	0.030240564
61	0xbc09df41	-0.008415044
62	0xbcc2f194	-0.023796834
63	0xbd8c97e1	-0.06864906
64	0x3dd639f0	0.104602695
65	0x3db33b59	0.08751554
66	0xbd2433b6	-0.040088378
67	0xbcf59fc4	-0.029983409
68	0xbde5fd5e	-0.112299666
69	0x3dba6fc4	0.09103349
70	0x3da4c80e	0.0804597
71	0x3c50192e	0.012701316
72	0x3d9f0ef4	0.07766524
73	0xbc9b1713	-0.018931901
74	0xbdd6d41f	-0.10489678
75	0x3e13adb0	0.14421725
76	0xbd60cf0d	-0.05488496
77	0xbe25c5b0	-0.16188693
78	0xbc359554	-0.011082966
79	0x3dbde283	0.09271719
80	0xbd1c3a01	-0.038141254
81	0x3dfa5a2b	0.122242294
82	0xbdc803de	-0.097663626
83	0x3c29c197	0.010361097
84	0x3c29c6ed	0.010362369
85	0xbd0e9055	-0.034805615
86	0x3e0e0f11	0.13872935
87	0x3c9cb674	0.01912997
88	0x3e23b06b	0.15985267
89	0x3e4f9b73	0.20274143
90	0x3df5ef20	0.120085
91	0x3c387980	0.011259437
92	0x3df41504	0.11918071
93	0x3e00de34	0.12584764
94	0xbe0f8358	-0.14014947
95	0xbc788c85	-0.015170221
96	0x3da8d68b	0.08244046
97	0x3dcb85a0	0.09937596
98	0x3cb3ee74	0.02196429
99	0x3deb03c8	0.114753306
100	0x3e00cb1b	0.12577479
101	0xbdb19ae1	-0.08672119
102	0x3dd0d0f6	0.10196106
103	0xbd5ac422	-0.053409703
104	0xbb6d0e51	-0.0036171863
105	0xbd941794	-0.0723106
106	0xbd9a3983	-0.07530501
107	0xbb75ad68	-0.0037487391
108	0xbd97eefd	-0.0741863
109	0x3d0b6a78	0.034037083
110	0x3d56b5a9	0.05241934
111	0x3d950760	0.07276797
112	0xbdc3e00a	-0.095642164
113	0xbb17279e	-0.0023064385
114	0x3cd6dcb7	0.026228292
115	0x3cc9f118	0.024651095
116	0x3beb49a8	0.0071804114
117	0xbc1d76c3	-0.0096108345
118	0xbd9b7133	-0.075899504
119	0xbb095759	-0.0020956604
120	0xbb733f21	-0.0037116485
121	0xbd0e5230	-0.03474635
122	0xbe1d99af	-0.15390657
123	0xbcaf47fa	-0.021396626
124	0x3dbc1a16	0.09184663
125	0xbd18d59a	-0.03731308
126	0xbc39d10f	-0.011341347
127	0xbd5957ff	-0.053062435
128	0x3d900368	0.070319
129	0xbcec57ac	-0.028850399
130	0x3c87723a	0.01653396
131	0x3d810e98	0.06301612
132	0xbd6a642f	-0.05722445
133	0xbd3a2a0c	-0.045450255
134	0x39ea26a2	0.00044660742
135	0x3d3eb0ce	0.046555333
136	0xbd89efd5	-0.067351975
137	0xba01e378	-0.0004954855
138	0xbb63a785	-0.00347373
139	0x3da53761	0.08067203
140	0x3cdd23cb	0.026994606
141	0xbc4ae1ce	-0.012382938
142	0xbd08720b	-0.033311885
143	0xbb13517d	-0.002247899
144	0xbc56aed1	-0.013103203
145	0xbc7d03f6	-0.015442839
146	0x3d5f5025	0.05451979
147	0xbc8d8afc	-0.017278187
148	0x3d0d3020	0.034469724
149	0x3d348723	0.04407419
150	0x3c570591	0.013123886
151	0x3d262ef6	0.04057213
152	0xbd52965b	-0.05141292
153	0x3d55c4ce	0.05218964
154	0x3d822695	0.06355015
155	0x3c86ba65	0.016446302
156	0x3d843861	0.06456066
157	0x3cb84da8	0.022497967
158	0xbd322f9e	-0.043502443
159	0xbc705624	-0.014668975
160	0x3cac206c	0.021011554
161	0xbd925d84	-0.07146743
162	0xbd3265de	-0.04355418
163	0x3caa2279	0.020768391
164	0xbdbcfea4	-0.09228256
165	0xbcda1842	-0.026622895
166	0xbd749bb3	-0.0597188
167	0xbd9adb6d	-0.075613834
168	0xbd2ed5bc	-0.0426843
169	0xbd95c6bd	-0.07313297
170	0x3b8d12ff	0.004305243
171	0xbd06422d	-0.032777954
172	0xbd7bd35d	-0.06148087
173	0xbd8ebafb	-0.069692574
174	0x3c40bbda	0.011763537
175	0xbcb4696b	-0.022022923
176	0xbbb81c31	-0.005618595
177	0x3d010423	0.031498086
178	0xbd76029e	-0.06006109
179	0x3a492cb4	0.0007674203
180	0xbc2bd9eb	-0.010488967
181	0xbdb90fb5	-0.09036199
182	0xbc84e972	-0.016224597
183	0xbdb15f83	-0.086607955
184	0x3d8fff16	0.07031076
185	0xbd5139a5	-0.051080365
186	0x3d65d99c	0.05611573
187	0xbdc147ca	-0.09437521
188	0x3daa5934	0.083177954
189	0x3d16f5d6	0.03685554
190	0x3ceefb84	0.029172666
191	0x3d838740	0.06422281
192	0x3d93ab9a	0.07210465
193	0x39126544	0.0001396137
194	0x3d06c6ec	0.03290455
195	0xbd83f218	-0.0644266
196	0x3d91ad0b	0.071130835
197	0xbdbe9623	-0.0930598
198	0xbd991e33	-0.07476463
199	0x3d0575b1	0.032582942
200	0xbd2114c9	-0.039326463
201	0xbd3964fa	-0.045262314
202	0x3cf3e293	0.029771125
203	0x3d420067	0.047363665
204	0xbd45e4bb	-0.048313837
205	0x3d7d319b	0.061814886
206	0xbd7b6041	-0.06137109
207	0xba84967f	-0.0010115652
208	0xbc7ff2f3	-0.015621888
209	0x3c9eb1e4	0.019371934
210	0xbda6a309	-0.08136565
211	0xbd5ba63b	-0.053625327
212	0xbcc44018	-0.023956344
213	0xbd63b049	-0.05558804
214	0xbd2a2e95	-0.04154833
215	0x3d0eff1f	0.03491127
216	0x3d2d840a	0.04236225
217	0x3b847227	0.0040419283
218	0xbd8315b7	-0.06400626
219	0xbd5a31b2	-0.05327005
220	0xbd8d5f34	-0.06902924
221	0xbd9abc1e	-0.07555412
222	0xbd116073	-0.03549237
223	0x3d6ceaf6	0.057841264
224	0x3daaa8c8	0.08332974
225	0xbd308e71	-0.043104593
226	0xbd0888ba	-0.033333518
227	0xbc00a2c3	-0.007851305
228	0x3d2c83b9	0.042117808
229	0xbcbbffc0	-0.0229491
230	0x3ce9d14a	0.02854218
231	0xbd062af0	-0.032755792
232	0xbd0a6b8a	-0.033793963
233	0x3dab10b8	0.08352798
234	0xbcb30a10	-0.021855384
235	0xbdb8d1a2	-0.09024359
236	0xbd75eb00	-0.060038567
237	0x3d6ba901	0.05753422
238	0xbdb3b213	-0.08774199
239	0xbd8613e6	-0.06546764
240	0xbc9ac6d8	-0.018893644
241	0xbd88068d	-0.066418745
242	0xbc6d93cd	-0.0145005705
243	0xbd10bdfb	-0.03533743
244	0x3d62af65	0.05534305
245	0x3d72462e	0.05914896
246	0xbd836faa	-0.064177826
247	0x3d7c98f0	0.06166929
248	0xbd5b072d	-0.05347364
249	0x3a0e46f4	0.0005427443
250	0xbd083bc0	-0.033260107
251	0x3d4723fb	0.048618298
252	0x3cd5d26b	0.026101312
253	0x3d1c9e48	0.038236886
254	0xbcf8207a	-0.030288924
255	0x3da43124	0.08017185

fc2.bias f4 [64]
0	0x3dc75926	0.097338006
1	0xbcb46c91	-0.022024425
2	0x3d25f597	0.040517416
3	0x3dd0c09b	0.101929866
4	0x3d6859d1	0.05672628
5	0x3d488c53	0.04896195
6	0x3cd84377	0.026399357
7	0x3e5d45d5	0.2160867
8	0x3e1060fe	0.140995
9	0x3ce9ce06	0.028540622
10	0x3ad4271f	0.0016185975
11	0x3e277716	0.16354021
12	0x3dc489a8	0.09596568
13	0x3d9fd799	0.07804794
14	0x3daca035	0.084289946
15	0x3c455253	0.012043553
16	0xbbfd93cb	-0.0077385656
17	0xbd920360	-0.0712955
18	0xbd44f039	-0.048080657
19	0x3d2b33e6	0.04179754
20	0x3d4a3976	0.049371205
21	0x3d2aebff	0.04172897
22	0xbc75f13d	-0.015011129
23	0x3d6073b5	0.054797847
24	0x3dcc3c88	0.09972483
25	0x3dbaa136	0.0911278
26	0x3dffbf83	0.124877
27	0x3d0fee07	0.03513911
28	0x3dd7f5ff	0.10544967
29	0xbd8c5d54	-0.068537384
30	0x3d9cdc3c	0.07659194
31	0x3d893f93	0.06701579
32	0xbceb62e1	-0.028733673
33	0x3dafe812	0.08589186
34	0x3daed0bf	0.08535909
35	0x3e21e046	0.1580821
36	0xbcbda8f0	-0.023151845
37	0xbd53321e	-0.051561467
38	0x3c9dbdc1	0.01925552
39	0x3e452d31	0.1925552
40	0x3c54371d	0.012952593
41	0xbd4ded4b	-0.05027513
42	0x3d558fbc	0.05213903
43	0x3d848653	0.06470933
44	0x3d9258ea	0.07145865
45	0x3e1bb9fe	0.15207669
46	0x3db61e84	0.08892539
47	0x3dccfb3c	0.10008857
48	0x3dc8e4ef	0.098092906
49	0x3d32d018	0.043655485
50	0x3e1ec49a	0.15504685
51	0x3d2f9225	0.042863984
52	0xbc8f3310	-0.017480403
53	0xbd0ee2c9	-0.034884248
54	0x3da997cf	0.08280908
55	0x3d8d7327	0.06906729
56	0x3e242263	0.16028742
57	0xbdeaf388	-0.11472231
58	0x3ca59946	0.020214688
59	0x3d51bdf7	0.051206555
60	0x3e1b9fc1	0.1519766
61	0x3d0ac47a	0.03387878
62	0x3df5bc08	0.11998755
63	0x3dd403b5	0.103522696

fc3.weight f4 [51, 64]
0	0xbdda8a9e	-0.106709704
1	0x3d1ef256	0.03880533
2	0x3d09c9ba	0.033639647
3	0xbb00cb71	-0.001965251
4	0x3e0e03aa	0.13868585
5	0xb9ab221d	-0.00032641078
6	0xbdd30976	-0.10304539
7	0xbdacd225	-0.084385194
8	0xbd25bf34	-0.04046555
9	0xbdcefd8e	-0.101069555
10	0x3d1c33ef	0.038135465
11	0x3d294976	0.041329823
12	0x3e0fdd3c	0.14049238
13	0x3e43acae	0.19108841
14	0xbcbe5130	-0.023232073
15	0xbd75a388	-0.05997041
16	0x3e1aa2ed	0.15101214
17	0x3e02b31b	0.12763636
18	0x3d1261d1	0.035737816
19	0xbdc9f5c1	-0.09861327
20	0x3e34cc6f	0.1765611
21	0xbdd45d54	-0.103693634
22	0x3d1763c6	0.036960386
23	0xbe2cd68a	-0.16878715
24	0x3e2d533e	0.16926286
25	0xbc6241da	-0.013809646
26	0xbdd0982f	-0.10185277
27	0x3cbfcf1b	0.023414185
28	0xbd6db203	-0.058031093
29	0xbc2f33d3	-0.010693508
30	0xbe2fca33	-0.17166977
31	0x3ac1d9c3	0.001478963
32	0xbdaf1b80	-0.08550167
33	0x3d84f201	0.06491471
34	0x3e0afb40	0.13572407
35	0x3da2d081	0.07949925
36	0x3b634cc4	0.0034683207
37	0x3d7a5e4a	0.061125077
38	0x3dbb37c0	0.09141493
39	0x3df44b59	0.11928434
40	0x3e0e4302	0.13892749
41	0xbd5978ab	-0.053093594
42	0x3cae537d	0.021280045
43	0xbad299e1	-0.0016067588
44	0x3dfb9e1d	0.12286017
45	0xbc169ca6	-0.009192621
46	0xbd316986	-0.043313526
47	0x3dce36a5	0.10069016
48	0x3e1264fb	0.14296333
49	0x3e2df90e	0.16989538
50	0xbe09f4e7	-0.13472329
51	0x3e411a00	0.18857574
52	0xbda50149	-0.08056886
53	0x3dae7dc5	0.085200824
54	0xbd541027	-0.051773217
55	0xbe311ef9	-0.17296971
56	0xbe456551	-0.1927693
57	0xbe0603f9	-0.13087453
58	0xbd118c39	-0.035534117
59	0xbe070d78	-0.13188732
60	0xbc048033	-0.008087206
61	0x3cdd031a	0.026979018
62	0x3d6ef2fa	0.05833719
63	0xbd9cc0fd	-0.07653997
64	0xbdb6b726	-0.089216515
65	0xbdcb36a3	-0.099225305
66	0xbe2bddfa	-0.16783896
67	0x3c0ede45	0.008719985
68	0x3af5f767	0.0018765748
69	0xbc93f5fa	-0.018061627
70	0x3df6d46c	0.12052235
71	0xbd9216d7	-0.071332626
72	0x3dbf02e9	0.09326727
73	0xbd9dd825	-0.07707242
74	0x3e0313a4	0.12800461
75	0xbe2d3abb	-0.16916935
76	0x3da6b4cf	0.08139955
77	0xbd2418c0	-0.040062666
78	0xbc72d434	-0.014821101
79	0x3d1d822f	0.03845423
80	0x3b1c8700	0.0023884177
81	0xbd4f4f8b	-0.050612967
82	0xbd38afd8	-0.045089573
83	0xbd5c20e3	-0.0537423
84	0x3dbbe873	0.091751955
85	0xbd91827d	-0.07104967
86	0xbdf6b5cc	-0.12046394
87	0xbdc7b511	-0.097513326
88	0x3d124f9c	0.035720453
89	0xbdff8da0	-0.12478185
90	0xbd3146d5	-0.04328044
91	0x3cd281e8	0.02569671
92	0x3d98f90c	0.07469377
93	0x3de11273	0.10989847
94	0x3e023934	0.12717134
95	0xbb80ace5	-0.0039268606
96	0xbd6dd96b	-0.058068674
97	0xbe1cd2d0	-0.15314794
98	0x3e00c966	0.12576827
99	0x3e274f1b	0.1633877
100	0x3e18261f	0.14858292
101	0x3dc1c02f	0.09460484
102	0x3cd75e56	0.0262901
103	0x3dff700a	0.12472542
104	0x3d889d89	0.066706724
105	0x3da3dfa5	0.08001641
106	0xbcd9d2c8	-0.026589766
107	0x3dba314c	0.09091434
108	0x3d5c4b22	0.05378259
109	0xbdfa6a0f	-0.1222726
110	0x3d2fbfcb	0.042907517
111	0xbd387fe9	-0.04504386
112	0x3db79d94	0.089656025
113	0xbe153856	-0.14572272
114	0x3d80ca79	0.062886186
115	0xbd291966	-0.041283987
116	0xbda33bfa	-0.07970424
117	0xbd1d6757	-0.03842863
118	0x3d9dbbd9	0.07701845
119	0x3d2a249d	0.041538823
120	0x3ce3c093	0.027801787
121	0x3cb357ec	0.02189251
122	0xbd09c706	-0.03363707
123	0xbdf2cb09	-0.11855132
124	0xbd008bf1	-0.03138346
125	0x3d42dae7	0.047572043
126	0x3df71442	0.12064411
127	0x38b9b46c	8.8550936e-05
128	0x3c51e377	0.0128105795
129	0xbdd80971	-0.10548676
130	0x3ce77829	0.028255539
131	0xbded63eb	-0.115913235
132	0x3d443d31	0.04790992
133	0x3cf6c4d7	0.030123157
134	0x3bbb3733	0.0057133674
135	0x3c88f91b	0.016720345
136	0xbd9a0373	-0.07520189
137	0xbcb21f9e	-0.021743592
138	0x3d055ad8	0.03255734
139	0x3ced1795	0.028941909
140	0xbced3def	-0.028960196
141	0x3dcc15bd	0.09965084
142	0x3c855e58	0.016280338
143	0x3d956fff	0.07296752
144	0xbc8f61f4	-0.017502762
145	0xbb3980d1	-0.002830554
146	0xbd876ece	-0.06612931
147	0xbd816b38	-0.063192785
148	0xbd67c2f4	-0.056582406
149	0xbc826f41	-0.01592219
150	0xbd019d33	-0.031644057
151	0x3c85328e	0.016259458
152	0x3d579578	0.05263278
153	0xbda6e7f2	-0.08149709
154	0xbd83ceef	-0.06435954
155	0x3d4d609f	0.050140973
156	0xbbc0ade2	-0.0058801034
157	0xbc872965	-0.01649923
158	0xbd3f8ebd	-0.046766985
159	0x3d767ff6	0.060180627
160	0x3def9212	0.116977826
161	0xbc2c3315	-0.010510226
162	0xbde86ab1	-0.11348475
163	0xbd19aa7b	-0.0375161
164	0x3d98b6b2	0.07456721
165	0x3d081b6e	0.033229284
166	0x3d3ebc44	0.046566263
167	0x3bcc8368	0.006241251
168	0xbd1bb037	-0.03800985
169	0x3c686ba5	0.014185821
170	0xbcaa4549	-0.02078499
171	0xbcd574a3	-0.026056593
172	0x3d310d76	0.043225728
173	0xbc72dfae	-0.014823837
174	0x3d82bb7a	0.063834146
175	0x3bed614d	0.007244265
176	0x3dc0dd54	0.09417215
177	0xbd8dc05c	-0.06921455
178	0x3d5387fc	0.051643357
179	0xbc6e63f2	-0.014550196
180	0x3d1be34d	0.038058568
181	0xbd5a9439	-0.053364012
182	0xbce9c42d	-0.028535927
183	0x3d314b7a	0.04328487
184	0xbce546b3	-0.027987814
185	0xbbdf2c4b	-0.0068107
186	0xbd466fda	-0.048446514
187	0x3d4697fb	0.048484784
188	0x3b64341f	0.0034821106
189	0xbd48a9ff	-0.048990246
190	0xbc8b6310	-0.01701501
191	0xbcdf8eab	-0.02728971
192	0xbcf2ddbf	-0.029646752
193	0x3c0585b4	0.008149553
194	0x3e425e6a	0.18981329
195	0xbd8db8a4	-0.06919983
196	0x3dbaa122	0.09112765
197	0xbca247b7	-0.019809587
198	0xbe0f8351	-0.14014937
199	0xbc5178ae	-0.01278512
200	0x3e1dc461	0.15406944
201	0xbdffe25e	-0.12494348
202	0x3ddcda15	0.10783783
203	0xbddd3fc4	-0.10803178
204	0x3e0e3525	0.1388746
205	0x3e23a1f1	0.15979744
206	0x3c63bb6b	0.013899664
207	0x3b049c37	0.0020234713
208	0xbd817cbc	-0.06322619
209	0x3e01e3fd	0.12684627
210	0x3d9e8970	0.07741058
211	0x3e248fc0	0.16070461
212	0xbce47e89	-0.027892368
213	0xbe3234f4	-0.17403013
214	0xbcc9f81c	-0.02465444
215	0xbda2ec52	-0.07955231
216	0xbd221aca	-0.03957633
217	0x3e142a25	0.14469202
218	0xbddbeb52	-0.10738243
219	0x3e1311ae	0.14362213
220	0xbe08c4ff	-0.13356398
221	0x3d5c15b5	0.05373164
222	0x3d9b8e23	0.0759547
223	0xbdca97eb	-0.09892257
224	0xbdb39e15	-0.08770386
225	0x3cef7c5f	0.02923411
226	0xbe21d2c1	-0.15803052
227	0x3d8a0382	0.0673895
228	0x3d9da3dc	0.07697269
229	0xbe249472	-0.16072252
230	0x3d8caaa0	0.06868482
231	0x3de2b39c	0.11069414
232	0x3becd0ea	0.007227053
233	0xbdb6066e	-0.08887945
234	0xbde8ff7b	-0.11376854
235	0x3e094b9f	0.13407753
236	0x3d860a2c	0.06544909
237	0xbd531455	-0.051533062
238	0xbda7412c	-0.081667274
239	0x3d8d4aaa	0.06899007
240	0x3daf7e1a	0.08568974
241	0x3d78ef49	0.060775075
242	0xbdf51a38	-0.119678915
243	0xbd6a7a30	-0.057245433
244	0xbc0ffdcb	-0.008788536
245	0xbd973821	-0.073837526
246	0x3d59a96e	0.053140096
247	0xbc586ee1	-0.013210029
248	0x3d27e911	0.040993754
249	0x3e1a3ded	0.15062685
250	0x3d8e998f	0.06962883
251	0xbd88adbe	-0.06673764
252	0x3d0e47d7	0.03473648
253	0xbda4d17f	-0.08047771
254	0xbd946a3e	-0.072468266
255	0xbcb5c694	-0.022189416

fc3.bias f4 [51]
0	0xbe531e37	-0.20616995
1	0xbe6756b7	-0.22591673
2	0x3bfd29bb	0.007725922
3	0xbe1ae0f9	-0.15124883
4	0xbe0e7d77	-0.13915049
5	0x3d0eaacf	0.034830865
6	0x3cf7756f	0.030207364
7	0xbd9b431c	-0.075811595
8	0xbdc3b71b	-0.09556409
9	0xbe370800	-0.17874146
10	0xbe421503	-0.18953328
11	0xbd145958	-0.036218017
12	0xbc437e2b	-0.011931936
13	0xbe33ce92	-0.17559269
14	0x3d2c2a5f	0.042032596
15	0xbd9c0e57	-0.076199226
16	0xbe0a73e3	-0.1352077
17	0xbdb3fb80	-0.08788204
18	0xbd8b4c7e	-0.06801699
19	0xbe1dcc5c	-0.15409988
20	0xbd821817	-0.06352251
21	0xbdd519a9	-0.10405285
22	0x3cdacc6e	0.026708808
23	0xbc672f06	-0.014110332
24	0x3c99508b	0.018715164
25	0x3c0d118d	0.008610141
26	0xbdc84afb	-0.097799264
27	0xbcf7da0e	-0.030255344
28	0xbc0da25e	-0.008644668
29	0x3dac510a	0.084138945
30	0x3a7948ec	0.00095094624
31	0xbe0d6a6b	-0.13810126
32	0xbd944d26	-0.072412774
33	0xbd321a59	-0.04348216
34	0xbd0716b8	-0.03298065
35	0xbcd20383	-0.02563644
36	0x3ceb1004	0.02869416
37	0xbd706a97	-0.058695402
38	0x3d2215d5	0.039571602
39	0x3e2c0da4	0.16802078
40	0x3d2c7c61	0.042110804
41	0x3ca8e58d	0.02061727
42	0x3d514199	0.05108795
43	0xbd8c907f	-0.06863498
44	0x3dbde905	0.092729606
45	0xbd998105	-0.07495312
46	0xbd8c54f9	-0.06852145
47	0xbd421965	-0.0473875
48	0x3c808fbf	0.015693543
49	0x3e006928	0.12540114
50	0xbd4afb40	-0.049556017
